{"format": "layers-model", "generatedBy": "keras v2.1.2", "convertedBy": "TensorFlow.js Converter v4.14.0", "modelTopology": {"keras_version": "2.1.2", "backend": "tensorflow", "model_config": {"class_name": "Model", "config": {"name": "WIDE_RESNET_28_10", "layers": [{"name": "input_1", "class_name": "InputLayer", "config": {"batch_input_shape": [null, 28, 28, 1], "dtype": "float32", "sparse": false, "name": "input_1"}, "inbound_nodes": []}, {"name": "zero_padding2d_1", "class_name": "ZeroPadding2D", "config": {"name": "zero_padding2d_1", "trainable": true, "padding": [[2, 2], [2, 2]], "data_format": "channels_last"}, "inbound_nodes": [[["input_1", 0, 0, {}]]]}, {"name": "conv2d_1", "class_name": "Conv2D", "config": {"name": "conv2d_1", "trainable": true, "filters": 16, "kernel_size": [3, 3], "strides": [1, 1], "padding": "same", "data_format": "channels_last", "dilation_rate": [1, 1], "activation": "linear", "use_bias": true, "kernel_initializer": {"class_name": "VarianceScaling", "config": {"scale": 1.0, "mode": "fan_avg", "distribution": "uniform", "seed": null}}, "bias_initializer": {"class_name": "Zeros", "config": {}}, "kernel_regularizer": {"class_name": "L1L2", "config": {"l1": 0.0, "l2": 0.0005000000237487257}}, "bias_regularizer": {"class_name": "L1L2", "config": {"l1": 0.0, "l2": 0.0005000000237487257}}, "activity_regularizer": null, "kernel_constraint": null, "bias_constraint": null}, "inbound_nodes": [[["zero_padding2d_1", 0, 0, {}]]]}, {"name": "batch_normalization_1", "class_name": "BatchNormalization", "config": {"name": "batch_normalization_1", "trainable": true, "axis": -1, "momentum": 0.99, "epsilon": 0.001, "center": true, "scale": true, "beta_initializer": {"class_name": "Zeros", "config": {}}, "gamma_initializer": {"class_name": "Ones", "config": {}}, "moving_mean_initializer": {"class_name": "Zeros", "config": {}}, "moving_variance_initializer": {"class_name": "Ones", "config": {}}, "beta_regularizer": {"class_name": "L1L2", "config": {"l1": 0.0, "l2": 0.0005000000237487257}}, "gamma_regularizer": {"class_name": "L1L2", "config": {"l1": 0.0, "l2": 0.0005000000237487257}}, "beta_constraint": null, "gamma_constraint": null}, "inbound_nodes": [[["conv2d_1", 0, 0, {}]]]}, {"name": "activation_1", "class_name": "Activation", "config": {"name": "activation_1", "trainable": true, "activation": "relu"}, "inbound_nodes": [[["batch_normalization_1", 0, 0, {}]]]}, {"name": "conv2d_2", "class_name": "Conv2D", "config": {"name": "conv2d_2", "trainable": true, "filters": 160, "kernel_size": [3, 3], "strides": [1, 1], "padding": "same", "data_format": "channels_last", "dilation_rate": [1, 1], "activation": "linear", "use_bias": true, "kernel_initializer": {"class_name": "VarianceScaling", "config": {"scale": 2.0, "mode": "fan_in", "distribution": "normal", "seed": null}}, "bias_initializer": {"class_name": "Zeros", "config": {}}, "kernel_regularizer": {"class_name": "L1L2", "config": {"l1": 0.0, "l2": 0.0005000000237487257}}, "bias_regularizer": {"class_name": "L1L2", "config": {"l1": 0.0, "l2": 0.0005000000237487257}}, "activity_regularizer": null, "kernel_constraint": null, "bias_constraint": null}, "inbound_nodes": [[["activation_1", 0, 0, {}]]]}, {"name": "batch_normalization_2", "class_name": "BatchNormalization", "config": {"name": "batch_normalization_2", "trainable": true, "axis": -1, "momentum": 0.99, "epsilon": 0.001, "center": true, "scale": true, "beta_initializer": {"class_name": "Zeros", "config": {}}, "gamma_initializer": {"class_name": "Ones", "config": {}}, "moving_mean_initializer": {"class_name": "Zeros", "config": {}}, "moving_variance_initializer": {"class_name": "Ones", "config": {}}, "beta_regularizer": {"class_name": "L1L2", "config": {"l1": 0.0, "l2": 0.0005000000237487257}}, "gamma_regularizer": {"class_name": "L1L2", "config": {"l1": 0.0, "l2": 0.0005000000237487257}}, "beta_constraint": null, "gamma_constraint": null}, "inbound_nodes": [[["conv2d_2", 0, 0, {}]]]}, {"name": "activation_2", "class_name": "Activation", "config": {"name": "activation_2", "trainable": true, "activation": "relu"}, "inbound_nodes": [[["batch_normalization_2", 0, 0, {}]]]}, {"name": "dropout_1", "class_name": "Dropout", "config": {"name": "dropout_1", "trainable": true, "rate": 0.3, "noise_shape": null, "seed": null}, "inbound_nodes": [[["activation_2", 0, 0, {}]]]}, {"name": "conv2d_4", "class_name": "Conv2D", "config": {"name": "conv2d_4", "trainable": true, "filters": 160, "kernel_size": [1, 1], "strides": [1, 1], "padding": "same", "data_format": "channels_last", "dilation_rate": [1, 1], "activation": "linear", "use_bias": true, "kernel_initializer": {"class_name": "VarianceScaling", "config": {"scale": 2.0, "mode": "fan_in", "distribution": "normal", "seed": null}}, "bias_initializer": {"class_name": "Zeros", "config": {}}, "kernel_regularizer": {"class_name": "L1L2", "config": {"l1": 0.0, "l2": 0.0005000000237487257}}, "bias_regularizer": {"class_name": "L1L2", "config": {"l1": 0.0, "l2": 0.0005000000237487257}}, "activity_regularizer": null, "kernel_constraint": null, "bias_constraint": null}, "inbound_nodes": [[["activation_1", 0, 0, {}]]]}, {"name": "conv2d_3", "class_name": "Conv2D", "config": {"name": "conv2d_3", "trainable": true, "filters": 160, "kernel_size": [3, 3], "strides": [1, 1], "padding": "same", "data_format": "channels_last", "dilation_rate": [1, 1], "activation": "linear", "use_bias": true, "kernel_initializer": {"class_name": "VarianceScaling", "config": {"scale": 2.0, "mode": "fan_in", "distribution": "normal", "seed": null}}, "bias_initializer": {"class_name": "Zeros", "config": {}}, "kernel_regularizer": {"class_name": "L1L2", "config": {"l1": 0.0, "l2": 0.0005000000237487257}}, "bias_regularizer": {"class_name": "L1L2", "config": {"l1": 0.0, "l2": 0.0005000000237487257}}, "activity_regularizer": null, "kernel_constraint": null, "bias_constraint": null}, "inbound_nodes": [[["dropout_1", 0, 0, {}]]]}, {"name": "add_1", "class_name": "Add", "config": {"name": "add_1", "trainable": true}, "inbound_nodes": [[["conv2d_4", 0, 0, {}], ["conv2d_3", 0, 0, {}]]]}, {"name": "batch_normalization_3", "class_name": "BatchNormalization", "config": {"name": "batch_normalization_3", "trainable": true, "axis": -1, "momentum": 0.99, "epsilon": 0.001, "center": true, "scale": true, "beta_initializer": {"class_name": "Zeros", "config": {}}, "gamma_initializer": {"class_name": "Ones", "config": {}}, "moving_mean_initializer": {"class_name": "Zeros", "config": {}}, "moving_variance_initializer": {"class_name": "Ones", "config": {}}, "beta_regularizer": {"class_name": "L1L2", "config": {"l1": 0.0, "l2": 0.0005000000237487257}}, "gamma_regularizer": {"class_name": "L1L2", "config": {"l1": 0.0, "l2": 0.0005000000237487257}}, "beta_constraint": null, "gamma_constraint": null}, "inbound_nodes": [[["add_1", 0, 0, {}]]]}, {"name": "activation_3", "class_name": "Activation", "config": {"name": "activation_3", "trainable": true, "activation": "relu"}, "inbound_nodes": [[["batch_normalization_3", 0, 0, {}]]]}, {"name": "conv2d_5", "class_name": "Conv2D", "config": {"name": "conv2d_5", "trainable": true, "filters": 160, "kernel_size": [3, 3], "strides": [1, 1], "padding": "same", "data_format": "channels_last", "dilation_rate": [1, 1], "activation": "linear", "use_bias": true, "kernel_initializer": {"class_name": "VarianceScaling", "config": {"scale": 2.0, "mode": "fan_in", "distribution": "normal", "seed": null}}, "bias_initializer": {"class_name": "Zeros", "config": {}}, "kernel_regularizer": {"class_name": "L1L2", "config": {"l1": 0.0, "l2": 0.0005000000237487257}}, "bias_regularizer": {"class_name": "L1L2", "config": {"l1": 0.0, "l2": 0.0005000000237487257}}, "activity_regularizer": null, "kernel_constraint": null, "bias_constraint": null}, "inbound_nodes": [[["activation_3", 0, 0, {}]]]}, {"name": "batch_normalization_4", "class_name": "BatchNormalization", "config": {"name": "batch_normalization_4", "trainable": true, "axis": -1, "momentum": 0.99, "epsilon": 0.001, "center": true, "scale": true, "beta_initializer": {"class_name": "Zeros", "config": {}}, "gamma_initializer": {"class_name": "Ones", "config": {}}, "moving_mean_initializer": {"class_name": "Zeros", "config": {}}, "moving_variance_initializer": {"class_name": "Ones", "config": {}}, "beta_regularizer": {"class_name": "L1L2", "config": {"l1": 0.0, "l2": 0.0005000000237487257}}, "gamma_regularizer": {"class_name": "L1L2", "config": {"l1": 0.0, "l2": 0.0005000000237487257}}, "beta_constraint": null, "gamma_constraint": null}, "inbound_nodes": [[["conv2d_5", 0, 0, {}]]]}, {"name": "activation_4", "class_name": "Activation", "config": {"name": "activation_4", "trainable": true, "activation": "relu"}, "inbound_nodes": [[["batch_normalization_4", 0, 0, {}]]]}, {"name": "dropout_2", "class_name": "Dropout", "config": {"name": "dropout_2", "trainable": true, "rate": 0.3, "noise_shape": null, "seed": null}, "inbound_nodes": [[["activation_4", 0, 0, {}]]]}, {"name": "conv2d_6", "class_name": "Conv2D", "config": {"name": "conv2d_6", "trainable": true, "filters": 160, "kernel_size": [3, 3], "strides": [1, 1], "padding": "same", "data_format": "channels_last", "dilation_rate": [1, 1], "activation": "linear", "use_bias": true, "kernel_initializer": {"class_name": "VarianceScaling", "config": {"scale": 2.0, "mode": "fan_in", "distribution": "normal", "seed": null}}, "bias_initializer": {"class_name": "Zeros", "config": {}}, "kernel_regularizer": {"class_name": "L1L2", "config": {"l1": 0.0, "l2": 0.0005000000237487257}}, "bias_regularizer": {"class_name": "L1L2", "config": {"l1": 0.0, "l2": 0.0005000000237487257}}, "activity_regularizer": null, "kernel_constraint": null, "bias_constraint": null}, "inbound_nodes": [[["dropout_2", 0, 0, {}]]]}, {"name": "add_2", "class_name": "Add", "config": {"name": "add_2", "trainable": true}, "inbound_nodes": [[["add_1", 0, 0, {}], ["conv2d_6", 0, 0, {}]]]}, {"name": "batch_normalization_5", "class_name": "BatchNormalization", "config": {"name": "batch_normalization_5", "trainable": true, "axis": -1, "momentum": 0.99, "epsilon": 0.001, "center": true, "scale": true, "beta_initializer": {"class_name": "Zeros", "config": {}}, "gamma_initializer": {"class_name": "Ones", "config": {}}, "moving_mean_initializer": {"class_name": "Zeros", "config": {}}, "moving_variance_initializer": {"class_name": "Ones", "config": {}}, "beta_regularizer": {"class_name": "L1L2", "config": {"l1": 0.0, "l2": 0.0005000000237487257}}, "gamma_regularizer": {"class_name": "L1L2", "config": {"l1": 0.0, "l2": 0.0005000000237487257}}, "beta_constraint": null, "gamma_constraint": null}, "inbound_nodes": [[["add_2", 0, 0, {}]]]}, {"name": "activation_5", "class_name": "Activation", "config": {"name": "activation_5", "trainable": true, "activation": "relu"}, "inbound_nodes": [[["batch_normalization_5", 0, 0, {}]]]}, {"name": "conv2d_7", "class_name": "Conv2D", "config": {"name": "conv2d_7", "trainable": true, "filters": 160, "kernel_size": [3, 3], "strides": [1, 1], "padding": "same", "data_format": "channels_last", "dilation_rate": [1, 1], "activation": "linear", "use_bias": true, "kernel_initializer": {"class_name": "VarianceScaling", "config": {"scale": 2.0, "mode": "fan_in", "distribution": "normal", "seed": null}}, "bias_initializer": {"class_name": "Zeros", "config": {}}, "kernel_regularizer": {"class_name": "L1L2", "config": {"l1": 0.0, "l2": 0.0005000000237487257}}, "bias_regularizer": {"class_name": "L1L2", "config": {"l1": 0.0, "l2": 0.0005000000237487257}}, "activity_regularizer": null, "kernel_constraint": null, "bias_constraint": null}, "inbound_nodes": [[["activation_5", 0, 0, {}]]]}, {"name": "batch_normalization_6", "class_name": "BatchNormalization", "config": {"name": "batch_normalization_6", "trainable": true, "axis": -1, "momentum": 0.99, "epsilon": 0.001, "center": true, "scale": true, "beta_initializer": {"class_name": "Zeros", "config": {}}, "gamma_initializer": {"class_name": "Ones", "config": {}}, "moving_mean_initializer": {"class_name": "Zeros", "config": {}}, "moving_variance_initializer": {"class_name": "Ones", "config": {}}, "beta_regularizer": {"class_name": "L1L2", "config": {"l1": 0.0, "l2": 0.0005000000237487257}}, "gamma_regularizer": {"class_name": "L1L2", "config": {"l1": 0.0, "l2": 0.0005000000237487257}}, "beta_constraint": null, "gamma_constraint": null}, "inbound_nodes": [[["conv2d_7", 0, 0, {}]]]}, {"name": "activation_6", "class_name": "Activation", "config": {"name": "activation_6", "trainable": true, "activation": "relu"}, "inbound_nodes": [[["batch_normalization_6", 0, 0, {}]]]}, {"name": "dropout_3", "class_name": "Dropout", "config": {"name": "dropout_3", "trainable": true, "rate": 0.3, "noise_shape": null, "seed": null}, "inbound_nodes": [[["activation_6", 0, 0, {}]]]}, {"name": "conv2d_8", "class_name": "Conv2D", "config": {"name": "conv2d_8", "trainable": true, "filters": 160, "kernel_size": [3, 3], "strides": [1, 1], "padding": "same", "data_format": "channels_last", "dilation_rate": [1, 1], "activation": "linear", "use_bias": true, "kernel_initializer": {"class_name": "VarianceScaling", "config": {"scale": 2.0, "mode": "fan_in", "distribution": "normal", "seed": null}}, "bias_initializer": {"class_name": "Zeros", "config": {}}, "kernel_regularizer": {"class_name": "L1L2", "config": {"l1": 0.0, "l2": 0.0005000000237487257}}, "bias_regularizer": {"class_name": "L1L2", "config": {"l1": 0.0, "l2": 0.0005000000237487257}}, "activity_regularizer": null, "kernel_constraint": null, "bias_constraint": null}, "inbound_nodes": [[["dropout_3", 0, 0, {}]]]}, {"name": "add_3", "class_name": "Add", "config": {"name": "add_3", "trainable": true}, "inbound_nodes": [[["add_2", 0, 0, {}], ["conv2d_8", 0, 0, {}]]]}, {"name": "batch_normalization_7", "class_name": "BatchNormalization", "config": {"name": "batch_normalization_7", "trainable": true, "axis": -1, "momentum": 0.99, "epsilon": 0.001, "center": true, "scale": true, "beta_initializer": {"class_name": "Zeros", "config": {}}, "gamma_initializer": {"class_name": "Ones", "config": {}}, "moving_mean_initializer": {"class_name": "Zeros", "config": {}}, "moving_variance_initializer": {"class_name": "Ones", "config": {}}, "beta_regularizer": {"class_name": "L1L2", "config": {"l1": 0.0, "l2": 0.0005000000237487257}}, "gamma_regularizer": {"class_name": "L1L2", "config": {"l1": 0.0, "l2": 0.0005000000237487257}}, "beta_constraint": null, "gamma_constraint": null}, "inbound_nodes": [[["add_3", 0, 0, {}]]]}, {"name": "activation_7", "class_name": "Activation", "config": {"name": "activation_7", "trainable": true, "activation": "relu"}, "inbound_nodes": [[["batch_normalization_7", 0, 0, {}]]]}, {"name": "conv2d_9", "class_name": "Conv2D", "config": {"name": "conv2d_9", "trainable": true, "filters": 160, "kernel_size": [3, 3], "strides": [1, 1], "padding": "same", "data_format": "channels_last", "dilation_rate": [1, 1], "activation": "linear", "use_bias": true, "kernel_initializer": {"class_name": "VarianceScaling", "config": {"scale": 2.0, "mode": "fan_in", "distribution": "normal", "seed": null}}, "bias_initializer": {"class_name": "Zeros", "config": {}}, "kernel_regularizer": {"class_name": "L1L2", "config": {"l1": 0.0, "l2": 0.0005000000237487257}}, "bias_regularizer": {"class_name": "L1L2", "config": {"l1": 0.0, "l2": 0.0005000000237487257}}, "activity_regularizer": null, "kernel_constraint": null, "bias_constraint": null}, "inbound_nodes": [[["activation_7", 0, 0, {}]]]}, {"name": "batch_normalization_8", "class_name": "BatchNormalization", "config": {"name": "batch_normalization_8", "trainable": true, "axis": -1, "momentum": 0.99, "epsilon": 0.001, "center": true, "scale": true, "beta_initializer": {"class_name": "Zeros", "config": {}}, "gamma_initializer": {"class_name": "Ones", "config": {}}, "moving_mean_initializer": {"class_name": "Zeros", "config": {}}, "moving_variance_initializer": {"class_name": "Ones", "config": {}}, "beta_regularizer": {"class_name": "L1L2", "config": {"l1": 0.0, "l2": 0.0005000000237487257}}, "gamma_regularizer": {"class_name": "L1L2", "config": {"l1": 0.0, "l2": 0.0005000000237487257}}, "beta_constraint": null, "gamma_constraint": null}, "inbound_nodes": [[["conv2d_9", 0, 0, {}]]]}, {"name": "activation_8", "class_name": "Activation", "config": {"name": "activation_8", "trainable": true, "activation": "relu"}, "inbound_nodes": [[["batch_normalization_8", 0, 0, {}]]]}, {"name": "dropout_4", "class_name": "Dropout", "config": {"name": "dropout_4", "trainable": true, "rate": 0.3, "noise_shape": null, "seed": null}, "inbound_nodes": [[["activation_8", 0, 0, {}]]]}, {"name": "conv2d_10", "class_name": "Conv2D", "config": {"name": "conv2d_10", "trainable": true, "filters": 160, "kernel_size": [3, 3], "strides": [1, 1], "padding": "same", "data_format": "channels_last", "dilation_rate": [1, 1], "activation": "linear", "use_bias": true, "kernel_initializer": {"class_name": "VarianceScaling", "config": {"scale": 2.0, "mode": "fan_in", "distribution": "normal", "seed": null}}, "bias_initializer": {"class_name": "Zeros", "config": {}}, "kernel_regularizer": {"class_name": "L1L2", "config": {"l1": 0.0, "l2": 0.0005000000237487257}}, "bias_regularizer": {"class_name": "L1L2", "config": {"l1": 0.0, "l2": 0.0005000000237487257}}, "activity_regularizer": null, "kernel_constraint": null, "bias_constraint": null}, "inbound_nodes": [[["dropout_4", 0, 0, {}]]]}, {"name": "add_4", "class_name": "Add", "config": {"name": "add_4", "trainable": true}, "inbound_nodes": [[["add_3", 0, 0, {}], ["conv2d_10", 0, 0, {}]]]}, {"name": "batch_normalization_9", "class_name": "BatchNormalization", "config": {"name": "batch_normalization_9", "trainable": true, "axis": -1, "momentum": 0.99, "epsilon": 0.001, "center": true, "scale": true, "beta_initializer": {"class_name": "Zeros", "config": {}}, "gamma_initializer": {"class_name": "Ones", "config": {}}, "moving_mean_initializer": {"class_name": "Zeros", "config": {}}, "moving_variance_initializer": {"class_name": "Ones", "config": {}}, "beta_regularizer": {"class_name": "L1L2", "config": {"l1": 0.0, "l2": 0.0005000000237487257}}, "gamma_regularizer": {"class_name": "L1L2", "config": {"l1": 0.0, "l2": 0.0005000000237487257}}, "beta_constraint": null, "gamma_constraint": null}, "inbound_nodes": [[["add_4", 0, 0, {}]]]}, {"name": "activation_9", "class_name": "Activation", "config": {"name": "activation_9", "trainable": true, "activation": "relu"}, "inbound_nodes": [[["batch_normalization_9", 0, 0, {}]]]}, {"name": "conv2d_11", "class_name": "Conv2D", "config": {"name": "conv2d_11", "trainable": true, "filters": 320, "kernel_size": [3, 3], "strides": [2, 2], "padding": "same", "data_format": "channels_last", "dilation_rate": [1, 1], "activation": "linear", "use_bias": true, "kernel_initializer": {"class_name": "VarianceScaling", "config": {"scale": 2.0, "mode": "fan_in", "distribution": "normal", "seed": null}}, "bias_initializer": {"class_name": "Zeros", "config": {}}, "kernel_regularizer": {"class_name": "L1L2", "config": {"l1": 0.0, "l2": 0.0005000000237487257}}, "bias_regularizer": {"class_name": "L1L2", "config": {"l1": 0.0, "l2": 0.0005000000237487257}}, "activity_regularizer": null, "kernel_constraint": null, "bias_constraint": null}, "inbound_nodes": [[["activation_9", 0, 0, {}]]]}, {"name": "batch_normalization_10", "class_name": "BatchNormalization", "config": {"name": "batch_normalization_10", "trainable": true, "axis": -1, "momentum": 0.99, "epsilon": 0.001, "center": true, "scale": true, "beta_initializer": {"class_name": "Zeros", "config": {}}, "gamma_initializer": {"class_name": "Ones", "config": {}}, "moving_mean_initializer": {"class_name": "Zeros", "config": {}}, "moving_variance_initializer": {"class_name": "Ones", "config": {}}, "beta_regularizer": {"class_name": "L1L2", "config": {"l1": 0.0, "l2": 0.0005000000237487257}}, "gamma_regularizer": {"class_name": "L1L2", "config": {"l1": 0.0, "l2": 0.0005000000237487257}}, "beta_constraint": null, "gamma_constraint": null}, "inbound_nodes": [[["conv2d_11", 0, 0, {}]]]}, {"name": "activation_10", "class_name": "Activation", "config": {"name": "activation_10", "trainable": true, "activation": "relu"}, "inbound_nodes": [[["batch_normalization_10", 0, 0, {}]]]}, {"name": "dropout_5", "class_name": "Dropout", "config": {"name": "dropout_5", "trainable": true, "rate": 0.3, "noise_shape": null, "seed": null}, "inbound_nodes": [[["activation_10", 0, 0, {}]]]}, {"name": "conv2d_13", "class_name": "Conv2D", "config": {"name": "conv2d_13", "trainable": true, "filters": 320, "kernel_size": [1, 1], "strides": [2, 2], "padding": "same", "data_format": "channels_last", "dilation_rate": [1, 1], "activation": "linear", "use_bias": true, "kernel_initializer": {"class_name": "VarianceScaling", "config": {"scale": 2.0, "mode": "fan_in", "distribution": "normal", "seed": null}}, "bias_initializer": {"class_name": "Zeros", "config": {}}, "kernel_regularizer": {"class_name": "L1L2", "config": {"l1": 0.0, "l2": 0.0005000000237487257}}, "bias_regularizer": {"class_name": "L1L2", "config": {"l1": 0.0, "l2": 0.0005000000237487257}}, "activity_regularizer": null, "kernel_constraint": null, "bias_constraint": null}, "inbound_nodes": [[["activation_9", 0, 0, {}]]]}, {"name": "conv2d_12", "class_name": "Conv2D", "config": {"name": "conv2d_12", "trainable": true, "filters": 320, "kernel_size": [3, 3], "strides": [1, 1], "padding": "same", "data_format": "channels_last", "dilation_rate": [1, 1], "activation": "linear", "use_bias": true, "kernel_initializer": {"class_name": "VarianceScaling", "config": {"scale": 2.0, "mode": "fan_in", "distribution": "normal", "seed": null}}, "bias_initializer": {"class_name": "Zeros", "config": {}}, "kernel_regularizer": {"class_name": "L1L2", "config": {"l1": 0.0, "l2": 0.0005000000237487257}}, "bias_regularizer": {"class_name": "L1L2", "config": {"l1": 0.0, "l2": 0.0005000000237487257}}, "activity_regularizer": null, "kernel_constraint": null, "bias_constraint": null}, "inbound_nodes": [[["dropout_5", 0, 0, {}]]]}, {"name": "add_5", "class_name": "Add", "config": {"name": "add_5", "trainable": true}, "inbound_nodes": [[["conv2d_13", 0, 0, {}], ["conv2d_12", 0, 0, {}]]]}, {"name": "batch_normalization_11", "class_name": "BatchNormalization", "config": {"name": "batch_normalization_11", "trainable": true, "axis": -1, "momentum": 0.99, "epsilon": 0.001, "center": true, "scale": true, "beta_initializer": {"class_name": "Zeros", "config": {}}, "gamma_initializer": {"class_name": "Ones", "config": {}}, "moving_mean_initializer": {"class_name": "Zeros", "config": {}}, "moving_variance_initializer": {"class_name": "Ones", "config": {}}, "beta_regularizer": {"class_name": "L1L2", "config": {"l1": 0.0, "l2": 0.0005000000237487257}}, "gamma_regularizer": {"class_name": "L1L2", "config": {"l1": 0.0, "l2": 0.0005000000237487257}}, "beta_constraint": null, "gamma_constraint": null}, "inbound_nodes": [[["add_5", 0, 0, {}]]]}, {"name": "activation_11", "class_name": "Activation", "config": {"name": "activation_11", "trainable": true, "activation": "relu"}, "inbound_nodes": [[["batch_normalization_11", 0, 0, {}]]]}, {"name": "conv2d_14", "class_name": "Conv2D", "config": {"name": "conv2d_14", "trainable": true, "filters": 320, "kernel_size": [3, 3], "strides": [1, 1], "padding": "same", "data_format": "channels_last", "dilation_rate": [1, 1], "activation": "linear", "use_bias": true, "kernel_initializer": {"class_name": "VarianceScaling", "config": {"scale": 2.0, "mode": "fan_in", "distribution": "normal", "seed": null}}, "bias_initializer": {"class_name": "Zeros", "config": {}}, "kernel_regularizer": {"class_name": "L1L2", "config": {"l1": 0.0, "l2": 0.0005000000237487257}}, "bias_regularizer": {"class_name": "L1L2", "config": {"l1": 0.0, "l2": 0.0005000000237487257}}, "activity_regularizer": null, "kernel_constraint": null, "bias_constraint": null}, "inbound_nodes": [[["activation_11", 0, 0, {}]]]}, {"name": "batch_normalization_12", "class_name": "BatchNormalization", "config": {"name": "batch_normalization_12", "trainable": true, "axis": -1, "momentum": 0.99, "epsilon": 0.001, "center": true, "scale": true, "beta_initializer": {"class_name": "Zeros", "config": {}}, "gamma_initializer": {"class_name": "Ones", "config": {}}, "moving_mean_initializer": {"class_name": "Zeros", "config": {}}, "moving_variance_initializer": {"class_name": "Ones", "config": {}}, "beta_regularizer": {"class_name": "L1L2", "config": {"l1": 0.0, "l2": 0.0005000000237487257}}, "gamma_regularizer": {"class_name": "L1L2", "config": {"l1": 0.0, "l2": 0.0005000000237487257}}, "beta_constraint": null, "gamma_constraint": null}, "inbound_nodes": [[["conv2d_14", 0, 0, {}]]]}, {"name": "activation_12", "class_name": "Activation", "config": {"name": "activation_12", "trainable": true, "activation": "relu"}, "inbound_nodes": [[["batch_normalization_12", 0, 0, {}]]]}, {"name": "dropout_6", "class_name": "Dropout", "config": {"name": "dropout_6", "trainable": true, "rate": 0.3, "noise_shape": null, "seed": null}, "inbound_nodes": [[["activation_12", 0, 0, {}]]]}, {"name": "conv2d_15", "class_name": "Conv2D", "config": {"name": "conv2d_15", "trainable": true, "filters": 320, "kernel_size": [3, 3], "strides": [1, 1], "padding": "same", "data_format": "channels_last", "dilation_rate": [1, 1], "activation": "linear", "use_bias": true, "kernel_initializer": {"class_name": "VarianceScaling", "config": {"scale": 2.0, "mode": "fan_in", "distribution": "normal", "seed": null}}, "bias_initializer": {"class_name": "Zeros", "config": {}}, "kernel_regularizer": {"class_name": "L1L2", "config": {"l1": 0.0, "l2": 0.0005000000237487257}}, "bias_regularizer": {"class_name": "L1L2", "config": {"l1": 0.0, "l2": 0.0005000000237487257}}, "activity_regularizer": null, "kernel_constraint": null, "bias_constraint": null}, "inbound_nodes": [[["dropout_6", 0, 0, {}]]]}, {"name": "add_6", "class_name": "Add", "config": {"name": "add_6", "trainable": true}, "inbound_nodes": [[["add_5", 0, 0, {}], ["conv2d_15", 0, 0, {}]]]}, {"name": "batch_normalization_13", "class_name": "BatchNormalization", "config": {"name": "batch_normalization_13", "trainable": true, "axis": -1, "momentum": 0.99, "epsilon": 0.001, "center": true, "scale": true, "beta_initializer": {"class_name": "Zeros", "config": {}}, "gamma_initializer": {"class_name": "Ones", "config": {}}, "moving_mean_initializer": {"class_name": "Zeros", "config": {}}, "moving_variance_initializer": {"class_name": "Ones", "config": {}}, "beta_regularizer": {"class_name": "L1L2", "config": {"l1": 0.0, "l2": 0.0005000000237487257}}, "gamma_regularizer": {"class_name": "L1L2", "config": {"l1": 0.0, "l2": 0.0005000000237487257}}, "beta_constraint": null, "gamma_constraint": null}, "inbound_nodes": [[["add_6", 0, 0, {}]]]}, {"name": "activation_13", "class_name": "Activation", "config": {"name": "activation_13", "trainable": true, "activation": "relu"}, "inbound_nodes": [[["batch_normalization_13", 0, 0, {}]]]}, {"name": "conv2d_16", "class_name": "Conv2D", "config": {"name": "conv2d_16", "trainable": true, "filters": 320, "kernel_size": [3, 3], "strides": [1, 1], "padding": "same", "data_format": "channels_last", "dilation_rate": [1, 1], "activation": "linear", "use_bias": true, "kernel_initializer": {"class_name": "VarianceScaling", "config": {"scale": 2.0, "mode": "fan_in", "distribution": "normal", "seed": null}}, "bias_initializer": {"class_name": "Zeros", "config": {}}, "kernel_regularizer": {"class_name": "L1L2", "config": {"l1": 0.0, "l2": 0.0005000000237487257}}, "bias_regularizer": {"class_name": "L1L2", "config": {"l1": 0.0, "l2": 0.0005000000237487257}}, "activity_regularizer": null, "kernel_constraint": null, "bias_constraint": null}, "inbound_nodes": [[["activation_13", 0, 0, {}]]]}, {"name": "batch_normalization_14", "class_name": "BatchNormalization", "config": {"name": "batch_normalization_14", "trainable": true, "axis": -1, "momentum": 0.99, "epsilon": 0.001, "center": true, "scale": true, "beta_initializer": {"class_name": "Zeros", "config": {}}, "gamma_initializer": {"class_name": "Ones", "config": {}}, "moving_mean_initializer": {"class_name": "Zeros", "config": {}}, "moving_variance_initializer": {"class_name": "Ones", "config": {}}, "beta_regularizer": {"class_name": "L1L2", "config": {"l1": 0.0, "l2": 0.0005000000237487257}}, "gamma_regularizer": {"class_name": "L1L2", "config": {"l1": 0.0, "l2": 0.0005000000237487257}}, "beta_constraint": null, "gamma_constraint": null}, "inbound_nodes": [[["conv2d_16", 0, 0, {}]]]}, {"name": "activation_14", "class_name": "Activation", "config": {"name": "activation_14", "trainable": true, "activation": "relu"}, "inbound_nodes": [[["batch_normalization_14", 0, 0, {}]]]}, {"name": "dropout_7", "class_name": "Dropout", "config": {"name": "dropout_7", "trainable": true, "rate": 0.3, "noise_shape": null, "seed": null}, "inbound_nodes": [[["activation_14", 0, 0, {}]]]}, {"name": "conv2d_17", "class_name": "Conv2D", "config": {"name": "conv2d_17", "trainable": true, "filters": 320, "kernel_size": [3, 3], "strides": [1, 1], "padding": "same", "data_format": "channels_last", "dilation_rate": [1, 1], "activation": "linear", "use_bias": true, "kernel_initializer": {"class_name": "VarianceScaling", "config": {"scale": 2.0, "mode": "fan_in", "distribution": "normal", "seed": null}}, "bias_initializer": {"class_name": "Zeros", "config": {}}, "kernel_regularizer": {"class_name": "L1L2", "config": {"l1": 0.0, "l2": 0.0005000000237487257}}, "bias_regularizer": {"class_name": "L1L2", "config": {"l1": 0.0, "l2": 0.0005000000237487257}}, "activity_regularizer": null, "kernel_constraint": null, "bias_constraint": null}, "inbound_nodes": [[["dropout_7", 0, 0, {}]]]}, {"name": "add_7", "class_name": "Add", "config": {"name": "add_7", "trainable": true}, "inbound_nodes": [[["add_6", 0, 0, {}], ["conv2d_17", 0, 0, {}]]]}, {"name": "batch_normalization_15", "class_name": "BatchNormalization", "config": {"name": "batch_normalization_15", "trainable": true, "axis": -1, "momentum": 0.99, "epsilon": 0.001, "center": true, "scale": true, "beta_initializer": {"class_name": "Zeros", "config": {}}, "gamma_initializer": {"class_name": "Ones", "config": {}}, "moving_mean_initializer": {"class_name": "Zeros", "config": {}}, "moving_variance_initializer": {"class_name": "Ones", "config": {}}, "beta_regularizer": {"class_name": "L1L2", "config": {"l1": 0.0, "l2": 0.0005000000237487257}}, "gamma_regularizer": {"class_name": "L1L2", "config": {"l1": 0.0, "l2": 0.0005000000237487257}}, "beta_constraint": null, "gamma_constraint": null}, "inbound_nodes": [[["add_7", 0, 0, {}]]]}, {"name": "activation_15", "class_name": "Activation", "config": {"name": "activation_15", "trainable": true, "activation": "relu"}, "inbound_nodes": [[["batch_normalization_15", 0, 0, {}]]]}, {"name": "conv2d_18", "class_name": "Conv2D", "config": {"name": "conv2d_18", "trainable": true, "filters": 320, "kernel_size": [3, 3], "strides": [1, 1], "padding": "same", "data_format": "channels_last", "dilation_rate": [1, 1], "activation": "linear", "use_bias": true, "kernel_initializer": {"class_name": "VarianceScaling", "config": {"scale": 2.0, "mode": "fan_in", "distribution": "normal", "seed": null}}, "bias_initializer": {"class_name": "Zeros", "config": {}}, "kernel_regularizer": {"class_name": "L1L2", "config": {"l1": 0.0, "l2": 0.0005000000237487257}}, "bias_regularizer": {"class_name": "L1L2", "config": {"l1": 0.0, "l2": 0.0005000000237487257}}, "activity_regularizer": null, "kernel_constraint": null, "bias_constraint": null}, "inbound_nodes": [[["activation_15", 0, 0, {}]]]}, {"name": "batch_normalization_16", "class_name": "BatchNormalization", "config": {"name": "batch_normalization_16", "trainable": true, "axis": -1, "momentum": 0.99, "epsilon": 0.001, "center": true, "scale": true, "beta_initializer": {"class_name": "Zeros", "config": {}}, "gamma_initializer": {"class_name": "Ones", "config": {}}, "moving_mean_initializer": {"class_name": "Zeros", "config": {}}, "moving_variance_initializer": {"class_name": "Ones", "config": {}}, "beta_regularizer": {"class_name": "L1L2", "config": {"l1": 0.0, "l2": 0.0005000000237487257}}, "gamma_regularizer": {"class_name": "L1L2", "config": {"l1": 0.0, "l2": 0.0005000000237487257}}, "beta_constraint": null, "gamma_constraint": null}, "inbound_nodes": [[["conv2d_18", 0, 0, {}]]]}, {"name": "activation_16", "class_name": "Activation", "config": {"name": "activation_16", "trainable": true, "activation": "relu"}, "inbound_nodes": [[["batch_normalization_16", 0, 0, {}]]]}, {"name": "dropout_8", "class_name": "Dropout", "config": {"name": "dropout_8", "trainable": true, "rate": 0.3, "noise_shape": null, "seed": null}, "inbound_nodes": [[["activation_16", 0, 0, {}]]]}, {"name": "conv2d_19", "class_name": "Conv2D", "config": {"name": "conv2d_19", "trainable": true, "filters": 320, "kernel_size": [3, 3], "strides": [1, 1], "padding": "same", "data_format": "channels_last", "dilation_rate": [1, 1], "activation": "linear", "use_bias": true, "kernel_initializer": {"class_name": "VarianceScaling", "config": {"scale": 2.0, "mode": "fan_in", "distribution": "normal", "seed": null}}, "bias_initializer": {"class_name": "Zeros", "config": {}}, "kernel_regularizer": {"class_name": "L1L2", "config": {"l1": 0.0, "l2": 0.0005000000237487257}}, "bias_regularizer": {"class_name": "L1L2", "config": {"l1": 0.0, "l2": 0.0005000000237487257}}, "activity_regularizer": null, "kernel_constraint": null, "bias_constraint": null}, "inbound_nodes": [[["dropout_8", 0, 0, {}]]]}, {"name": "add_8", "class_name": "Add", "config": {"name": "add_8", "trainable": true}, "inbound_nodes": [[["add_7", 0, 0, {}], ["conv2d_19", 0, 0, {}]]]}, {"name": "batch_normalization_17", "class_name": "BatchNormalization", "config": {"name": "batch_normalization_17", "trainable": true, "axis": -1, "momentum": 0.99, "epsilon": 0.001, "center": true, "scale": true, "beta_initializer": {"class_name": "Zeros", "config": {}}, "gamma_initializer": {"class_name": "Ones", "config": {}}, "moving_mean_initializer": {"class_name": "Zeros", "config": {}}, "moving_variance_initializer": {"class_name": "Ones", "config": {}}, "beta_regularizer": {"class_name": "L1L2", "config": {"l1": 0.0, "l2": 0.0005000000237487257}}, "gamma_regularizer": {"class_name": "L1L2", "config": {"l1": 0.0, "l2": 0.0005000000237487257}}, "beta_constraint": null, "gamma_constraint": null}, "inbound_nodes": [[["add_8", 0, 0, {}]]]}, {"name": "activation_17", "class_name": "Activation", "config": {"name": "activation_17", "trainable": true, "activation": "relu"}, "inbound_nodes": [[["batch_normalization_17", 0, 0, {}]]]}, {"name": "conv2d_20", "class_name": "Conv2D", "config": {"name": "conv2d_20", "trainable": true, "filters": 640, "kernel_size": [3, 3], "strides": [2, 2], "padding": "same", "data_format": "channels_last", "dilation_rate": [1, 1], "activation": "linear", "use_bias": true, "kernel_initializer": {"class_name": "VarianceScaling", "config": {"scale": 2.0, "mode": "fan_in", "distribution": "normal", "seed": null}}, "bias_initializer": {"class_name": "Zeros", "config": {}}, "kernel_regularizer": {"class_name": "L1L2", "config": {"l1": 0.0, "l2": 0.0005000000237487257}}, "bias_regularizer": {"class_name": "L1L2", "config": {"l1": 0.0, "l2": 0.0005000000237487257}}, "activity_regularizer": null, "kernel_constraint": null, "bias_constraint": null}, "inbound_nodes": [[["activation_17", 0, 0, {}]]]}, {"name": "batch_normalization_18", "class_name": "BatchNormalization", "config": {"name": "batch_normalization_18", "trainable": true, "axis": -1, "momentum": 0.99, "epsilon": 0.001, "center": true, "scale": true, "beta_initializer": {"class_name": "Zeros", "config": {}}, "gamma_initializer": {"class_name": "Ones", "config": {}}, "moving_mean_initializer": {"class_name": "Zeros", "config": {}}, "moving_variance_initializer": {"class_name": "Ones", "config": {}}, "beta_regularizer": {"class_name": "L1L2", "config": {"l1": 0.0, "l2": 0.0005000000237487257}}, "gamma_regularizer": {"class_name": "L1L2", "config": {"l1": 0.0, "l2": 0.0005000000237487257}}, "beta_constraint": null, "gamma_constraint": null}, "inbound_nodes": [[["conv2d_20", 0, 0, {}]]]}, {"name": "activation_18", "class_name": "Activation", "config": {"name": "activation_18", "trainable": true, "activation": "relu"}, "inbound_nodes": [[["batch_normalization_18", 0, 0, {}]]]}, {"name": "dropout_9", "class_name": "Dropout", "config": {"name": "dropout_9", "trainable": true, "rate": 0.3, "noise_shape": null, "seed": null}, "inbound_nodes": [[["activation_18", 0, 0, {}]]]}, {"name": "conv2d_22", "class_name": "Conv2D", "config": {"name": "conv2d_22", "trainable": true, "filters": 640, "kernel_size": [1, 1], "strides": [2, 2], "padding": "same", "data_format": "channels_last", "dilation_rate": [1, 1], "activation": "linear", "use_bias": true, "kernel_initializer": {"class_name": "VarianceScaling", "config": {"scale": 2.0, "mode": "fan_in", "distribution": "normal", "seed": null}}, "bias_initializer": {"class_name": "Zeros", "config": {}}, "kernel_regularizer": {"class_name": "L1L2", "config": {"l1": 0.0, "l2": 0.0005000000237487257}}, "bias_regularizer": {"class_name": "L1L2", "config": {"l1": 0.0, "l2": 0.0005000000237487257}}, "activity_regularizer": null, "kernel_constraint": null, "bias_constraint": null}, "inbound_nodes": [[["activation_17", 0, 0, {}]]]}, {"name": "conv2d_21", "class_name": "Conv2D", "config": {"name": "conv2d_21", "trainable": true, "filters": 640, "kernel_size": [3, 3], "strides": [1, 1], "padding": "same", "data_format": "channels_last", "dilation_rate": [1, 1], "activation": "linear", "use_bias": true, "kernel_initializer": {"class_name": "VarianceScaling", "config": {"scale": 2.0, "mode": "fan_in", "distribution": "normal", "seed": null}}, "bias_initializer": {"class_name": "Zeros", "config": {}}, "kernel_regularizer": {"class_name": "L1L2", "config": {"l1": 0.0, "l2": 0.0005000000237487257}}, "bias_regularizer": {"class_name": "L1L2", "config": {"l1": 0.0, "l2": 0.0005000000237487257}}, "activity_regularizer": null, "kernel_constraint": null, "bias_constraint": null}, "inbound_nodes": [[["dropout_9", 0, 0, {}]]]}, {"name": "add_9", "class_name": "Add", "config": {"name": "add_9", "trainable": true}, "inbound_nodes": [[["conv2d_22", 0, 0, {}], ["conv2d_21", 0, 0, {}]]]}, {"name": "batch_normalization_19", "class_name": "BatchNormalization", "config": {"name": "batch_normalization_19", "trainable": true, "axis": -1, "momentum": 0.99, "epsilon": 0.001, "center": true, "scale": true, "beta_initializer": {"class_name": "Zeros", "config": {}}, "gamma_initializer": {"class_name": "Ones", "config": {}}, "moving_mean_initializer": {"class_name": "Zeros", "config": {}}, "moving_variance_initializer": {"class_name": "Ones", "config": {}}, "beta_regularizer": {"class_name": "L1L2", "config": {"l1": 0.0, "l2": 0.0005000000237487257}}, "gamma_regularizer": {"class_name": "L1L2", "config": {"l1": 0.0, "l2": 0.0005000000237487257}}, "beta_constraint": null, "gamma_constraint": null}, "inbound_nodes": [[["add_9", 0, 0, {}]]]}, {"name": "activation_19", "class_name": "Activation", "config": {"name": "activation_19", "trainable": true, "activation": "relu"}, "inbound_nodes": [[["batch_normalization_19", 0, 0, {}]]]}, {"name": "conv2d_23", "class_name": "Conv2D", "config": {"name": "conv2d_23", "trainable": true, "filters": 640, "kernel_size": [3, 3], "strides": [1, 1], "padding": "same", "data_format": "channels_last", "dilation_rate": [1, 1], "activation": "linear", "use_bias": true, "kernel_initializer": {"class_name": "VarianceScaling", "config": {"scale": 2.0, "mode": "fan_in", "distribution": "normal", "seed": null}}, "bias_initializer": {"class_name": "Zeros", "config": {}}, "kernel_regularizer": {"class_name": "L1L2", "config": {"l1": 0.0, "l2": 0.0005000000237487257}}, "bias_regularizer": {"class_name": "L1L2", "config": {"l1": 0.0, "l2": 0.0005000000237487257}}, "activity_regularizer": null, "kernel_constraint": null, "bias_constraint": null}, "inbound_nodes": [[["activation_19", 0, 0, {}]]]}, {"name": "batch_normalization_20", "class_name": "BatchNormalization", "config": {"name": "batch_normalization_20", "trainable": true, "axis": -1, "momentum": 0.99, "epsilon": 0.001, "center": true, "scale": true, "beta_initializer": {"class_name": "Zeros", "config": {}}, "gamma_initializer": {"class_name": "Ones", "config": {}}, "moving_mean_initializer": {"class_name": "Zeros", "config": {}}, "moving_variance_initializer": {"class_name": "Ones", "config": {}}, "beta_regularizer": {"class_name": "L1L2", "config": {"l1": 0.0, "l2": 0.0005000000237487257}}, "gamma_regularizer": {"class_name": "L1L2", "config": {"l1": 0.0, "l2": 0.0005000000237487257}}, "beta_constraint": null, "gamma_constraint": null}, "inbound_nodes": [[["conv2d_23", 0, 0, {}]]]}, {"name": "activation_20", "class_name": "Activation", "config": {"name": "activation_20", "trainable": true, "activation": "relu"}, "inbound_nodes": [[["batch_normalization_20", 0, 0, {}]]]}, {"name": "dropout_10", "class_name": "Dropout", "config": {"name": "dropout_10", "trainable": true, "rate": 0.3, "noise_shape": null, "seed": null}, "inbound_nodes": [[["activation_20", 0, 0, {}]]]}, {"name": "conv2d_24", "class_name": "Conv2D", "config": {"name": "conv2d_24", "trainable": true, "filters": 640, "kernel_size": [3, 3], "strides": [1, 1], "padding": "same", "data_format": "channels_last", "dilation_rate": [1, 1], "activation": "linear", "use_bias": true, "kernel_initializer": {"class_name": "VarianceScaling", "config": {"scale": 2.0, "mode": "fan_in", "distribution": "normal", "seed": null}}, "bias_initializer": {"class_name": "Zeros", "config": {}}, "kernel_regularizer": {"class_name": "L1L2", "config": {"l1": 0.0, "l2": 0.0005000000237487257}}, "bias_regularizer": {"class_name": "L1L2", "config": {"l1": 0.0, "l2": 0.0005000000237487257}}, "activity_regularizer": null, "kernel_constraint": null, "bias_constraint": null}, "inbound_nodes": [[["dropout_10", 0, 0, {}]]]}, {"name": "add_10", "class_name": "Add", "config": {"name": "add_10", "trainable": true}, "inbound_nodes": [[["add_9", 0, 0, {}], ["conv2d_24", 0, 0, {}]]]}, {"name": "batch_normalization_21", "class_name": "BatchNormalization", "config": {"name": "batch_normalization_21", "trainable": true, "axis": -1, "momentum": 0.99, "epsilon": 0.001, "center": true, "scale": true, "beta_initializer": {"class_name": "Zeros", "config": {}}, "gamma_initializer": {"class_name": "Ones", "config": {}}, "moving_mean_initializer": {"class_name": "Zeros", "config": {}}, "moving_variance_initializer": {"class_name": "Ones", "config": {}}, "beta_regularizer": {"class_name": "L1L2", "config": {"l1": 0.0, "l2": 0.0005000000237487257}}, "gamma_regularizer": {"class_name": "L1L2", "config": {"l1": 0.0, "l2": 0.0005000000237487257}}, "beta_constraint": null, "gamma_constraint": null}, "inbound_nodes": [[["add_10", 0, 0, {}]]]}, {"name": "activation_21", "class_name": "Activation", "config": {"name": "activation_21", "trainable": true, "activation": "relu"}, "inbound_nodes": [[["batch_normalization_21", 0, 0, {}]]]}, {"name": "conv2d_25", "class_name": "Conv2D", "config": {"name": "conv2d_25", "trainable": true, "filters": 640, "kernel_size": [3, 3], "strides": [1, 1], "padding": "same", "data_format": "channels_last", "dilation_rate": [1, 1], "activation": "linear", "use_bias": true, "kernel_initializer": {"class_name": "VarianceScaling", "config": {"scale": 2.0, "mode": "fan_in", "distribution": "normal", "seed": null}}, "bias_initializer": {"class_name": "Zeros", "config": {}}, "kernel_regularizer": {"class_name": "L1L2", "config": {"l1": 0.0, "l2": 0.0005000000237487257}}, "bias_regularizer": {"class_name": "L1L2", "config": {"l1": 0.0, "l2": 0.0005000000237487257}}, "activity_regularizer": null, "kernel_constraint": null, "bias_constraint": null}, "inbound_nodes": [[["activation_21", 0, 0, {}]]]}, {"name": "batch_normalization_22", "class_name": "BatchNormalization", "config": {"name": "batch_normalization_22", "trainable": true, "axis": -1, "momentum": 0.99, "epsilon": 0.001, "center": true, "scale": true, "beta_initializer": {"class_name": "Zeros", "config": {}}, "gamma_initializer": {"class_name": "Ones", "config": {}}, "moving_mean_initializer": {"class_name": "Zeros", "config": {}}, "moving_variance_initializer": {"class_name": "Ones", "config": {}}, "beta_regularizer": {"class_name": "L1L2", "config": {"l1": 0.0, "l2": 0.0005000000237487257}}, "gamma_regularizer": {"class_name": "L1L2", "config": {"l1": 0.0, "l2": 0.0005000000237487257}}, "beta_constraint": null, "gamma_constraint": null}, "inbound_nodes": [[["conv2d_25", 0, 0, {}]]]}, {"name": "activation_22", "class_name": "Activation", "config": {"name": "activation_22", "trainable": true, "activation": "relu"}, "inbound_nodes": [[["batch_normalization_22", 0, 0, {}]]]}, {"name": "dropout_11", "class_name": "Dropout", "config": {"name": "dropout_11", "trainable": true, "rate": 0.3, "noise_shape": null, "seed": null}, "inbound_nodes": [[["activation_22", 0, 0, {}]]]}, {"name": "conv2d_26", "class_name": "Conv2D", "config": {"name": "conv2d_26", "trainable": true, "filters": 640, "kernel_size": [3, 3], "strides": [1, 1], "padding": "same", "data_format": "channels_last", "dilation_rate": [1, 1], "activation": "linear", "use_bias": true, "kernel_initializer": {"class_name": "VarianceScaling", "config": {"scale": 2.0, "mode": "fan_in", "distribution": "normal", "seed": null}}, "bias_initializer": {"class_name": "Zeros", "config": {}}, "kernel_regularizer": {"class_name": "L1L2", "config": {"l1": 0.0, "l2": 0.0005000000237487257}}, "bias_regularizer": {"class_name": "L1L2", "config": {"l1": 0.0, "l2": 0.0005000000237487257}}, "activity_regularizer": null, "kernel_constraint": null, "bias_constraint": null}, "inbound_nodes": [[["dropout_11", 0, 0, {}]]]}, {"name": "add_11", "class_name": "Add", "config": {"name": "add_11", "trainable": true}, "inbound_nodes": [[["add_10", 0, 0, {}], ["conv2d_26", 0, 0, {}]]]}, {"name": "batch_normalization_23", "class_name": "BatchNormalization", "config": {"name": "batch_normalization_23", "trainable": true, "axis": -1, "momentum": 0.99, "epsilon": 0.001, "center": true, "scale": true, "beta_initializer": {"class_name": "Zeros", "config": {}}, "gamma_initializer": {"class_name": "Ones", "config": {}}, "moving_mean_initializer": {"class_name": "Zeros", "config": {}}, "moving_variance_initializer": {"class_name": "Ones", "config": {}}, "beta_regularizer": {"class_name": "L1L2", "config": {"l1": 0.0, "l2": 0.0005000000237487257}}, "gamma_regularizer": {"class_name": "L1L2", "config": {"l1": 0.0, "l2": 0.0005000000237487257}}, "beta_constraint": null, "gamma_constraint": null}, "inbound_nodes": [[["add_11", 0, 0, {}]]]}, {"name": "activation_23", "class_name": "Activation", "config": {"name": "activation_23", "trainable": true, "activation": "relu"}, "inbound_nodes": [[["batch_normalization_23", 0, 0, {}]]]}, {"name": "conv2d_27", "class_name": "Conv2D", "config": {"name": "conv2d_27", "trainable": true, "filters": 640, "kernel_size": [3, 3], "strides": [1, 1], "padding": "same", "data_format": "channels_last", "dilation_rate": [1, 1], "activation": "linear", "use_bias": true, "kernel_initializer": {"class_name": "VarianceScaling", "config": {"scale": 2.0, "mode": "fan_in", "distribution": "normal", "seed": null}}, "bias_initializer": {"class_name": "Zeros", "config": {}}, "kernel_regularizer": {"class_name": "L1L2", "config": {"l1": 0.0, "l2": 0.0005000000237487257}}, "bias_regularizer": {"class_name": "L1L2", "config": {"l1": 0.0, "l2": 0.0005000000237487257}}, "activity_regularizer": null, "kernel_constraint": null, "bias_constraint": null}, "inbound_nodes": [[["activation_23", 0, 0, {}]]]}, {"name": "batch_normalization_24", "class_name": "BatchNormalization", "config": {"name": "batch_normalization_24", "trainable": true, "axis": -1, "momentum": 0.99, "epsilon": 0.001, "center": true, "scale": true, "beta_initializer": {"class_name": "Zeros", "config": {}}, "gamma_initializer": {"class_name": "Ones", "config": {}}, "moving_mean_initializer": {"class_name": "Zeros", "config": {}}, "moving_variance_initializer": {"class_name": "Ones", "config": {}}, "beta_regularizer": {"class_name": "L1L2", "config": {"l1": 0.0, "l2": 0.0005000000237487257}}, "gamma_regularizer": {"class_name": "L1L2", "config": {"l1": 0.0, "l2": 0.0005000000237487257}}, "beta_constraint": null, "gamma_constraint": null}, "inbound_nodes": [[["conv2d_27", 0, 0, {}]]]}, {"name": "activation_24", "class_name": "Activation", "config": {"name": "activation_24", "trainable": true, "activation": "relu"}, "inbound_nodes": [[["batch_normalization_24", 0, 0, {}]]]}, {"name": "dropout_12", "class_name": "Dropout", "config": {"name": "dropout_12", "trainable": true, "rate": 0.3, "noise_shape": null, "seed": null}, "inbound_nodes": [[["activation_24", 0, 0, {}]]]}, {"name": "conv2d_28", "class_name": "Conv2D", "config": {"name": "conv2d_28", "trainable": true, "filters": 640, "kernel_size": [3, 3], "strides": [1, 1], "padding": "same", "data_format": "channels_last", "dilation_rate": [1, 1], "activation": "linear", "use_bias": true, "kernel_initializer": {"class_name": "VarianceScaling", "config": {"scale": 2.0, "mode": "fan_in", "distribution": "normal", "seed": null}}, "bias_initializer": {"class_name": "Zeros", "config": {}}, "kernel_regularizer": {"class_name": "L1L2", "config": {"l1": 0.0, "l2": 0.0005000000237487257}}, "bias_regularizer": {"class_name": "L1L2", "config": {"l1": 0.0, "l2": 0.0005000000237487257}}, "activity_regularizer": null, "kernel_constraint": null, "bias_constraint": null}, "inbound_nodes": [[["dropout_12", 0, 0, {}]]]}, {"name": "add_12", "class_name": "Add", "config": {"name": "add_12", "trainable": true}, "inbound_nodes": [[["add_11", 0, 0, {}], ["conv2d_28", 0, 0, {}]]]}, {"name": "batch_normalization_25", "class_name": "BatchNormalization", "config": {"name": "batch_normalization_25", "trainable": true, "axis": -1, "momentum": 0.99, "epsilon": 0.001, "center": true, "scale": true, "beta_initializer": {"class_name": "Zeros", "config": {}}, "gamma_initializer": {"class_name": "Ones", "config": {}}, "moving_mean_initializer": {"class_name": "Zeros", "config": {}}, "moving_variance_initializer": {"class_name": "Ones", "config": {}}, "beta_regularizer": {"class_name": "L1L2", "config": {"l1": 0.0, "l2": 0.0005000000237487257}}, "gamma_regularizer": {"class_name": "L1L2", "config": {"l1": 0.0, "l2": 0.0005000000237487257}}, "beta_constraint": null, "gamma_constraint": null}, "inbound_nodes": [[["add_12", 0, 0, {}]]]}, {"name": "activation_25", "class_name": "Activation", "config": {"name": "activation_25", "trainable": true, "activation": "relu"}, "inbound_nodes": [[["batch_normalization_25", 0, 0, {}]]]}, {"name": "global_average_pooling2d_1", "class_name": "GlobalAveragePooling2D", "config": {"name": "global_average_pooling2d_1", "trainable": true, "data_format": "channels_last"}, "inbound_nodes": [[["activation_25", 0, 0, {}]]]}, {"name": "dense_1", "class_name": "Dense", "config": {"name": "dense_1", "trainable": true, "units": 10, "activation": "softmax", "use_bias": true, "kernel_initializer": {"class_name": "VarianceScaling", "config": {"scale": 1.0, "mode": "fan_avg", "distribution": "uniform", "seed": null}}, "bias_initializer": {"class_name": "Zeros", "config": {}}, "kernel_regularizer": {"class_name": "L1L2", "config": {"l1": 0.0, "l2": 0.0005000000237487257}}, "bias_regularizer": {"class_name": "L1L2", "config": {"l1": 0.0, "l2": 0.0005000000237487257}}, "activity_regularizer": null, "kernel_constraint": null, "bias_constraint": null}, "inbound_nodes": [[["global_average_pooling2d_1", 0, 0, {}]]]}], "input_layers": [["input_1", 0, 0]], "output_layers": [["dense_1", 0, 0]]}}, "training_config": {"optimizer_config": {"class_name": "SGD", "config": {"lr": 1.2799998785339994e-06, "momentum": 0.8999999761581421, "decay": 0.0, "nesterov": true}}, "loss": "categorical_crossentropy", "metrics": ["accuracy"], "sample_weight_mode": null, "loss_weights": null}}, "weightsManifest": [{"paths": ["group1-shard1of35.bin", "group1-shard2of35.bin", "group1-shard3of35.bin", "group1-shard4of35.bin", "group1-shard5of35.bin", "group1-shard6of35.bin", "group1-shard7of35.bin", "group1-shard8of35.bin", "group1-shard9of35.bin", "group1-shard10of35.bin", "group1-shard11of35.bin", "group1-shard12of35.bin", "group1-shard13of35.bin", "group1-shard14of35.bin", "group1-shard15of35.bin", "group1-shard16of35.bin", "group1-shard17of35.bin", "group1-shard18of35.bin", "group1-shard19of35.bin", "group1-shard20of35.bin", "group1-shard21of35.bin", "group1-shard22of35.bin", "group1-shard23of35.bin", "group1-shard24of35.bin", "group1-shard25of35.bin", "group1-shard26of35.bin", "group1-shard27of35.bin", "group1-shard28of35.bin", "group1-shard29of35.bin", "group1-shard30of35.bin", "group1-shard31of35.bin", "group1-shard32of35.bin", "group1-shard33of35.bin", "group1-shard34of35.bin", "group1-shard35of35.bin"], "weights": [{"name": "batch_normalization_1/gamma", "shape": [16], "dtype": "float32"}, {"name": "batch_normalization_1/beta", "shape": [16], "dtype": "float32"}, {"name": "batch_normalization_1/moving_mean", "shape": [16], "dtype": "float32"}, {"name": "batch_normalization_1/moving_variance", "shape": [16], "dtype": "float32"}, {"name": "batch_normalization_10/gamma", "shape": [320], "dtype": "float32"}, {"name": "batch_normalization_10/beta", "shape": [320], "dtype": "float32"}, {"name": "batch_normalization_10/moving_mean", "shape": [320], "dtype": "float32"}, {"name": "batch_normalization_10/moving_variance", "shape": [320], "dtype": "float32"}, {"name": "batch_normalization_11/gamma", "shape": [320], "dtype": "float32"}, {"name": "batch_normalization_11/beta", "shape": [320], "dtype": "float32"}, {"name": "batch_normalization_11/moving_mean", "shape": [320], "dtype": "float32"}, {"name": "batch_normalization_11/moving_variance", "shape": [320], "dtype": "float32"}, {"name": "batch_normalization_12/gamma", "shape": [320], "dtype": "float32"}, {"name": "batch_normalization_12/beta", "shape": [320], "dtype": "float32"}, {"name": "batch_normalization_12/moving_mean", "shape": [320], "dtype": "float32"}, {"name": "batch_normalization_12/moving_variance", "shape": [320], "dtype": "float32"}, {"name": "batch_normalization_13/gamma", "shape": [320], "dtype": "float32"}, {"name": "batch_normalization_13/beta", "shape": [320], "dtype": "float32"}, {"name": "batch_normalization_13/moving_mean", "shape": [320], "dtype": "float32"}, {"name": "batch_normalization_13/moving_variance", "shape": [320], "dtype": "float32"}, {"name": "batch_normalization_14/gamma", "shape": [320], "dtype": "float32"}, {"name": "batch_normalization_14/beta", "shape": [320], "dtype": "float32"}, {"name": "batch_normalization_14/moving_mean", "shape": [320], "dtype": "float32"}, {"name": "batch_normalization_14/moving_variance", "shape": [320], "dtype": "float32"}, {"name": "batch_normalization_15/gamma", "shape": [320], "dtype": "float32"}, {"name": "batch_normalization_15/beta", "shape": [320], "dtype": "float32"}, {"name": "batch_normalization_15/moving_mean", "shape": [320], "dtype": "float32"}, {"name": "batch_normalization_15/moving_variance", "shape": [320], "dtype": "float32"}, {"name": "batch_normalization_16/gamma", "shape": [320], "dtype": "float32"}, {"name": "batch_normalization_16/beta", "shape": [320], "dtype": "float32"}, {"name": "batch_normalization_16/moving_mean", "shape": [320], "dtype": "float32"}, {"name": "batch_normalization_16/moving_variance", "shape": [320], "dtype": "float32"}, {"name": "batch_normalization_17/gamma", "shape": [320], "dtype": "float32"}, {"name": "batch_normalization_17/beta", "shape": [320], "dtype": "float32"}, {"name": "batch_normalization_17/moving_mean", "shape": [320], "dtype": "float32"}, {"name": "batch_normalization_17/moving_variance", "shape": [320], "dtype": "float32"}, {"name": "batch_normalization_18/gamma", "shape": [640], "dtype": "float32"}, {"name": "batch_normalization_18/beta", "shape": [640], "dtype": "float32"}, {"name": "batch_normalization_18/moving_mean", "shape": [640], "dtype": "float32"}, {"name": "batch_normalization_18/moving_variance", "shape": [640], "dtype": "float32"}, {"name": "batch_normalization_19/gamma", "shape": [640], "dtype": "float32"}, {"name": "batch_normalization_19/beta", "shape": [640], "dtype": "float32"}, {"name": "batch_normalization_19/moving_mean", "shape": [640], "dtype": "float32"}, {"name": "batch_normalization_19/moving_variance", "shape": [640], "dtype": "float32"}, {"name": "batch_normalization_2/gamma", "shape": [160], "dtype": "float32"}, {"name": "batch_normalization_2/beta", "shape": [160], "dtype": "float32"}, {"name": "batch_normalization_2/moving_mean", "shape": [160], "dtype": "float32"}, {"name": "batch_normalization_2/moving_variance", "shape": [160], "dtype": "float32"}, {"name": "batch_normalization_20/gamma", "shape": [640], "dtype": "float32"}, {"name": "batch_normalization_20/beta", "shape": [640], "dtype": "float32"}, {"name": "batch_normalization_20/moving_mean", "shape": [640], "dtype": "float32"}, {"name": "batch_normalization_20/moving_variance", "shape": [640], "dtype": "float32"}, {"name": "batch_normalization_21/gamma", "shape": [640], "dtype": "float32"}, {"name": "batch_normalization_21/beta", "shape": [640], "dtype": "float32"}, {"name": "batch_normalization_21/moving_mean", "shape": [640], "dtype": "float32"}, {"name": "batch_normalization_21/moving_variance", "shape": [640], "dtype": "float32"}, {"name": "batch_normalization_22/gamma", "shape": [640], "dtype": "float32"}, {"name": "batch_normalization_22/beta", "shape": [640], "dtype": "float32"}, {"name": "batch_normalization_22/moving_mean", "shape": [640], "dtype": "float32"}, {"name": "batch_normalization_22/moving_variance", "shape": [640], "dtype": "float32"}, {"name": "batch_normalization_23/gamma", "shape": [640], "dtype": "float32"}, {"name": "batch_normalization_23/beta", "shape": [640], "dtype": "float32"}, {"name": "batch_normalization_23/moving_mean", "shape": [640], "dtype": "float32"}, {"name": "batch_normalization_23/moving_variance", "shape": [640], "dtype": "float32"}, {"name": "batch_normalization_24/gamma", "shape": [640], "dtype": "float32"}, {"name": "batch_normalization_24/beta", "shape": [640], "dtype": "float32"}, {"name": "batch_normalization_24/moving_mean", "shape": [640], "dtype": "float32"}, {"name": "batch_normalization_24/moving_variance", "shape": [640], "dtype": "float32"}, {"name": "batch_normalization_25/gamma", "shape": [640], "dtype": "float32"}, {"name": "batch_normalization_25/beta", "shape": [640], "dtype": "float32"}, {"name": "batch_normalization_25/moving_mean", "shape": [640], "dtype": "float32"}, {"name": "batch_normalization_25/moving_variance", "shape": [640], "dtype": "float32"}, {"name": "batch_normalization_3/gamma", "shape": [160], "dtype": "float32"}, {"name": "batch_normalization_3/beta", "shape": [160], "dtype": "float32"}, {"name": "batch_normalization_3/moving_mean", "shape": [160], "dtype": "float32"}, {"name": "batch_normalization_3/moving_variance", "shape": [160], "dtype": "float32"}, {"name": "batch_normalization_4/gamma", "shape": [160], "dtype": "float32"}, {"name": "batch_normalization_4/beta", "shape": [160], "dtype": "float32"}, {"name": "batch_normalization_4/moving_mean", "shape": [160], "dtype": "float32"}, {"name": "batch_normalization_4/moving_variance", "shape": [160], "dtype": "float32"}, {"name": "batch_normalization_5/gamma", "shape": [160], "dtype": "float32"}, {"name": "batch_normalization_5/beta", "shape": [160], "dtype": "float32"}, {"name": "batch_normalization_5/moving_mean", "shape": [160], "dtype": "float32"}, {"name": "batch_normalization_5/moving_variance", "shape": [160], "dtype": "float32"}, {"name": "batch_normalization_6/gamma", "shape": [160], "dtype": "float32"}, {"name": "batch_normalization_6/beta", "shape": [160], "dtype": "float32"}, {"name": "batch_normalization_6/moving_mean", "shape": [160], "dtype": "float32"}, {"name": "batch_normalization_6/moving_variance", "shape": [160], "dtype": "float32"}, {"name": "batch_normalization_7/gamma", "shape": [160], "dtype": "float32"}, {"name": "batch_normalization_7/beta", "shape": [160], "dtype": "float32"}, {"name": "batch_normalization_7/moving_mean", "shape": [160], "dtype": "float32"}, {"name": "batch_normalization_7/moving_variance", "shape": [160], "dtype": "float32"}, {"name": "batch_normalization_8/gamma", "shape": [160], "dtype": "float32"}, {"name": "batch_normalization_8/beta", "shape": [160], "dtype": "float32"}, {"name": "batch_normalization_8/moving_mean", "shape": [160], "dtype": "float32"}, {"name": "batch_normalization_8/moving_variance", "shape": [160], "dtype": "float32"}, {"name": "batch_normalization_9/gamma", "shape": [160], "dtype": "float32"}, {"name": "batch_normalization_9/beta", "shape": [160], "dtype": "float32"}, {"name": "batch_normalization_9/moving_mean", "shape": [160], "dtype": "float32"}, {"name": "batch_normalization_9/moving_variance", "shape": [160], "dtype": "float32"}, {"name": "conv2d_1/kernel", "shape": [3, 3, 1, 16], "dtype": "float32"}, {"name": "conv2d_1/bias", "shape": [16], "dtype": "float32"}, {"name": "conv2d_10/kernel", "shape": [3, 3, 160, 160], "dtype": "float32"}, {"name": "conv2d_10/bias", "shape": [160], "dtype": "float32"}, {"name": "conv2d_11/kernel", "shape": [3, 3, 160, 320], "dtype": "float32"}, {"name": "conv2d_11/bias", "shape": [320], "dtype": "float32"}, {"name": "conv2d_12/kernel", "shape": [3, 3, 320, 320], "dtype": "float32"}, {"name": "conv2d_12/bias", "shape": [320], "dtype": "float32"}, {"name": "conv2d_13/kernel", "shape": [1, 1, 160, 320], "dtype": "float32"}, {"name": "conv2d_13/bias", "shape": [320], "dtype": "float32"}, {"name": "conv2d_14/kernel", "shape": [3, 3, 320, 320], "dtype": "float32"}, {"name": "conv2d_14/bias", "shape": [320], "dtype": "float32"}, {"name": "conv2d_15/kernel", "shape": [3, 3, 320, 320], "dtype": "float32"}, {"name": "conv2d_15/bias", "shape": [320], "dtype": "float32"}, {"name": "conv2d_16/kernel", "shape": [3, 3, 320, 320], "dtype": "float32"}, {"name": "conv2d_16/bias", "shape": [320], "dtype": "float32"}, {"name": "conv2d_17/kernel", "shape": [3, 3, 320, 320], "dtype": "float32"}, {"name": "conv2d_17/bias", "shape": [320], "dtype": "float32"}, {"name": "conv2d_18/kernel", "shape": [3, 3, 320, 320], "dtype": "float32"}, {"name": "conv2d_18/bias", "shape": [320], "dtype": "float32"}, {"name": "conv2d_19/kernel", "shape": [3, 3, 320, 320], "dtype": "float32"}, {"name": "conv2d_19/bias", "shape": [320], "dtype": "float32"}, {"name": "conv2d_2/kernel", "shape": [3, 3, 16, 160], "dtype": "float32"}, {"name": "conv2d_2/bias", "shape": [160], "dtype": "float32"}, {"name": "conv2d_20/kernel", "shape": [3, 3, 320, 640], "dtype": "float32"}, {"name": "conv2d_20/bias", "shape": [640], "dtype": "float32"}, {"name": "conv2d_21/kernel", "shape": [3, 3, 640, 640], "dtype": "float32"}, {"name": "conv2d_21/bias", "shape": [640], "dtype": "float32"}, {"name": "conv2d_22/kernel", "shape": [1, 1, 320, 640], "dtype": "float32"}, {"name": "conv2d_22/bias", "shape": [640], "dtype": "float32"}, {"name": "conv2d_23/kernel", "shape": [3, 3, 640, 640], "dtype": "float32"}, {"name": "conv2d_23/bias", "shape": [640], "dtype": "float32"}, {"name": "conv2d_24/kernel", "shape": [3, 3, 640, 640], "dtype": "float32"}, {"name": "conv2d_24/bias", "shape": [640], "dtype": "float32"}, {"name": "conv2d_25/kernel", "shape": [3, 3, 640, 640], "dtype": "float32"}, {"name": "conv2d_25/bias", "shape": [640], "dtype": "float32"}, {"name": "conv2d_26/kernel", "shape": [3, 3, 640, 640], "dtype": "float32"}, {"name": "conv2d_26/bias", "shape": [640], "dtype": "float32"}, {"name": "conv2d_27/kernel", "shape": [3, 3, 640, 640], "dtype": "float32"}, {"name": "conv2d_27/bias", "shape": [640], "dtype": "float32"}, {"name": "conv2d_28/kernel", "shape": [3, 3, 640, 640], "dtype": "float32"}, {"name": "conv2d_28/bias", "shape": [640], "dtype": "float32"}, {"name": "conv2d_3/kernel", "shape": [3, 3, 160, 160], "dtype": "float32"}, {"name": "conv2d_3/bias", "shape": [160], "dtype": "float32"}, {"name": "conv2d_4/kernel", "shape": [1, 1, 16, 160], "dtype": "float32"}, {"name": "conv2d_4/bias", "shape": [160], "dtype": "float32"}, {"name": "conv2d_5/kernel", "shape": [3, 3, 160, 160], "dtype": "float32"}, {"name": "conv2d_5/bias", "shape": [160], "dtype": "float32"}, {"name": "conv2d_6/kernel", "shape": [3, 3, 160, 160], "dtype": "float32"}, {"name": "conv2d_6/bias", "shape": [160], "dtype": "float32"}, {"name": "conv2d_7/kernel", "shape": [3, 3, 160, 160], "dtype": "float32"}, {"name": "conv2d_7/bias", "shape": [160], "dtype": "float32"}, {"name": "conv2d_8/kernel", "shape": [3, 3, 160, 160], "dtype": "float32"}, {"name": "conv2d_8/bias", "shape": [160], "dtype": "float32"}, {"name": "conv2d_9/kernel", "shape": [3, 3, 160, 160], "dtype": "float32"}, {"name": "conv2d_9/bias", "shape": [160], "dtype": "float32"}, {"name": "dense_1/kernel", "shape": [640, 10], "dtype": "float32"}, {"name": "dense_1/bias", "shape": [10], "dtype": "float32"}]}]}